onnx/Rostlab_prot_t5_xl_half_uniref50-enc.onnx (onnx, 460828 bytes, 50 tensors)

encoder.block.0.layer.0.SelfAttention.relative_attention_bias.weight f4 [32, 32]
0	0xc0060000	-2.09375
1	0xbfa40000	-1.28125
2	0x40430000	3.046875
3	0xbfd30000	-1.6484375
4	0x404b0000	3.171875
5	0xc0350000	-2.828125
6	0xc09f0000	-4.96875
7	0xbfc10000	-1.5078125
8	0xc1e50000	-28.625
9	0xc0a00000	-5.0
10	0xbfbf0000	-1.4921875
11	0xbf090000	-0.53515625
12	0xc1920000	-18.25
13	0x3fb50000	1.4140625
14	0x3fb90000	1.4453125
15	0x40400000	3.0
16	0x404b0000	3.171875
17	0xbf8c0000	-1.09375
18	0x3ed30000	0.41210938
19	0xbfcf0000	-1.6171875
20	0x40180000	2.375
21	0xc1120000	-9.125
22	0xbfb90000	-1.4453125
23	0x40450000	3.078125
24	0x401e0000	2.46875
25	0xbf580000	-0.84375
26	0x3fcb0000	1.5859375
27	0xc21a0000	-38.5
28	0x3fb00000	1.375
29	0x40120000	2.28125
30	0xbe310000	-0.17285156
31	0xbf830000	-1.0234375
32	0xc0140000	-2.3125
33	0xbf920000	-1.140625
34	0x3f6a0000	0.9140625
35	0x3ec80000	0.390625
36	0x3f1b0000	0.60546875
37	0x40370000	2.859375
38	0xbeb90000	-0.36132812
39	0x3fc90000	1.5703125
40	0x3fbc0000	1.46875
41	0xc0c60000	-6.1875
42	0x3f6e0000	0.9296875
43	0x3f3d0000	0.73828125
44	0xbe980000	-0.296875
45	0x3ffd0000	1.9765625
46	0x3ff40000	1.90625
47	0xc1310000	-11.0625
48	0x402d0000	2.703125
49	0xbfd80000	-1.6875
50	0x3edf0000	0.43554688
51	0x3e480000	0.1953125
52	0x401a0000	2.40625
53	0xc0a70000	-5.21875
54	0xbfb80000	-1.4375
55	0x40640000	3.5625
56	0xbfd30000	-1.6484375
57	0xbf510000	-0.81640625
58	0x3f8b0000	1.0859375
59	0xbfe20000	-1.765625
60	0x40c10000	6.03125
61	0x3ebc0000	0.3671875
62	0x3f050000	0.51953125
63	0xbf780000	-0.96875
64	0xc0a00000	-5.0
65	0xc16f0000	-14.9375
66	0x3f5b0000	0.85546875
67	0x3f550000	0.83203125
68	0x3efd0000	0.49414062
69	0x409d0000	4.90625
70	0xbe260000	-0.16210938
71	0xbc960000	-0.018310547
72	0x3fbc0000	1.46875
73	0xbf7d0000	-0.98828125
74	0x3fd30000	1.6484375
75	0x3f690000	0.91015625
76	0xbec10000	-0.37695312
77	0x3ff50000	1.9140625
78	0xbd3b0000	-0.045654297
79	0x40770000	3.859375
80	0xc0720000	-3.78125
81	0xc07c0000	-3.9375
82	0x3f450000	0.76953125
83	0x3f110000	0.56640625
84	0x40290000	2.640625
85	0xc0a60000	-5.1875
86	0xbfd20000	-1.640625
87	0x40450000	3.078125
88	0xbf2f0000	-0.68359375
89	0xbf700000	-0.9375
90	0x403a0000	2.90625
91	0xbf980000	-1.1875
92	0x40610000	3.515625
93	0x3f030000	0.51171875
94	0x3f5f0000	0.87109375
95	0xbf3d0000	-0.73828125
96	0xc0380000	-2.875
97	0xbfd70000	-1.6796875
98	0x3f840000	1.03125
99	0x3f680000	0.90625
100	0x3ecb0000	0.39648438
101	0x40900000	4.5
102	0x3ed30000	0.41210938
103	0x3f040000	0.515625
104	0x40100000	2.25
105	0x3ed70000	0.41992188
106	0x40230000	2.546875
107	0x3fae0000	1.359375
108	0x3dc50000	0.096191406
109	0xc19b0000	-19.375
110	0x3fd00000	1.625
111	0xc19d0000	-19.625
112	0x40320000	2.78125
113	0xc0130000	-2.296875
114	0x3ef50000	0.47851562
115	0x3e690000	0.22753906
116	0x40bb0000	5.84375
117	0xc09b0000	-4.84375
118	0xbfa60000	-1.296875
119	0x408c0000	4.375
120	0xbfc20000	-1.515625
121	0xbf6a0000	-0.9140625
122	0x3ff70000	1.9296875
123	0x3da40000	0.080078125
124	0x403f0000	2.984375
125	0xbd4b0000	-0.049560547
126	0x3f640000	0.890625
127	0xbf860000	-1.046875
128	0xbff70000	-1.9296875
129	0xc0370000	-2.859375
130	0x3f970000	1.1796875
131	0x3f580000	0.84375
132	0x3f030000	0.51171875
133	0x40350000	2.828125
134	0x3e920000	0.28515625
135	0xbf130000	-0.57421875
136	0xbf660000	-0.8984375
137	0xbbe50000	-0.0069885254
138	0x403e0000	2.96875
139	0x3fa10000	1.2578125
140	0x3e340000	0.17578125
141	0xbfeb0000	-1.8359375
142	0x3fed0000	1.8515625
143	0x40460000	3.09375
144	0x402a0000	2.65625
145	0xbf090000	-0.53515625
146	0x3efb0000	0.49023438
147	0x3e960000	0.29296875
148	0x410f0000	8.9375
149	0xc0370000	-2.859375
150	0xbf380000	-0.71875
151	0x3fb30000	1.3984375
152	0xbff10000	-1.8828125
153	0xbf810000	-1.0078125
154	0x3fc90000	1.5703125
155	0x3f050000	0.51953125
156	0x40100000	2.25
157	0x3f540000	0.828125
158	0x3f280000	0.65625
159	0xbf840000	-1.03125
160	0xc0110000	-2.265625
161	0xc1490000	-12.5625
162	0x3f900000	1.125
163	0x3fdf0000	1.7421875
164	0x3edd0000	0.43164062
165	0x40500000	3.25
166	0x3eb80000	0.359375
167	0x40130000	2.296875
168	0x40190000	2.390625
169	0x3f810000	1.0078125
170	0x408b0000	4.34375
171	0x3fbc0000	1.46875
172	0x3f590000	0.84765625
173	0x40240000	2.5625
174	0x3faa0000	1.328125
175	0x3feb0000	1.8359375
176	0x3fa50000	1.2890625
177	0xc0ae0000	-5.4375
178	0x3f3e0000	0.7421875
179	0x3f2b0000	0.66796875
180	0x40b10000	5.53125
181	0xc03b0000	-2.921875
182	0xbf0f0000	-0.55859375
183	0x3fc90000	1.5703125
184	0xbfb90000	-1.4453125
185	0xbf7f0000	-0.99609375
186	0x404a0000	3.15625
187	0x3f9c0000	1.21875
188	0x40260000	2.59375
189	0x3f6f0000	0.93359375
190	0x3f4c0000	0.796875
191	0xbf190000	-0.59765625
192	0xc0b20000	-5.5625
193	0xbf970000	-1.1796875
194	0xbd400000	-0.046875
195	0x3fa90000	1.3203125
196	0x3e3f0000	0.18652344
197	0x40120000	2.28125
198	0x3ed10000	0.40820312
199	0x400e0000	2.21875
200	0xc0b80000	-5.75
201	0x3f7d0000	0.98828125
202	0x40980000	4.75
203	0x3fb40000	1.40625
204	0x3f4f0000	0.80859375
205	0x40260000	2.59375
206	0x3f850000	1.0390625
207	0x40120000	2.28125
208	0x402b0000	2.671875
209	0xc0200000	-2.5
210	0x3f6b0000	0.91796875
211	0x3f6d0000	0.92578125
212	0x40840000	4.125
213	0xbfd80000	-1.6875
214	0xbf320000	-0.6953125
215	0x402b0000	2.671875
216	0xbfb00000	-1.375
217	0xbf570000	-0.83984375
218	0x40940000	4.625
219	0x3f9f0000	1.2421875
220	0x3fde0000	1.734375
221	0xbf830000	-1.0234375
222	0x3f3d0000	0.73828125
223	0xbf1b0000	-0.60546875
224	0xc0370000	-2.859375
225	0xbf510000	-0.81640625
226	0x3f540000	0.828125
227	0x3fb10000	1.3828125
228	0x3e8e0000	0.27734375
229	0x40090000	2.140625
230	0x3edb0000	0.42773438
231	0xc1540000	-13.25
232	0x40790000	3.890625
233	0x3ffe0000	1.984375
234	0x40ab0000	5.34375
235	0x40040000	2.0625
236	0x3f5c0000	0.859375
237	0xc18f0000	-17.875
238	0x3f610000	0.87890625
239	0x3fc80000	1.5625
240	0x40110000	2.265625
241	0xbfe50000	-1.7890625
242	0x3f150000	0.58203125
243	0x3e7b0000	0.24511719
244	0x40c10000	6.03125
245	0xc0070000	-2.109375
246	0xbf450000	-0.76953125
247	0x40050000	2.078125
248	0xc00e0000	-2.21875
249	0xbf9c0000	-1.21875
250	0x3fb80000	1.4375
251	0x3fae0000	1.359375
252	0x3f250000	0.64453125
253	0x3fc00000	1.5
254	0x3fa80000	1.3125
255	0xbf090000	-0.53515625

encoder.block.0.layer.0.layer_norm.weight f4 [1024]
0	0x3d290000	0.041259766
1	0x3d8b0000	0.067871094
2	0x3d310000	0.04321289
3	0x3cd80000	0.026367188
4	0x3bea0000	0.0071411133
5	0x3d4c0000	0.049804688
6	0x3dce0000	0.10058594
7	0x3d120000	0.03564453
8	0x3d4c0000	0.049804688
9	0x3d650000	0.055908203
10	0x3cce0000	0.025146484
11	0x3d610000	0.05493164
12	0x3d750000	0.059814453
13	0x3ce70000	0.028198242
14	0x3db90000	0.09033203
15	0x3cc10000	0.02355957
16	0x3d2e0000	0.04248047
17	0x3d730000	0.059326172
18	0x3d3d0000	0.046142578
19	0x3c930000	0.017944336
20	0x3cc40000	0.023925781
21	0x3c6d0000	0.014465332
22	0x3d300000	0.04296875
23	0x3d4a0000	0.049316406
24	0x3c400000	0.01171875
25	0x3d320000	0.04345703
26	0x3d1e0000	0.03857422
27	0x3d8d0000	0.068847656
28	0x3cd00000	0.025390625
29	0x3d1f0000	0.03881836
30	0x3cba0000	0.022705078
31	0x3d970000	0.07373047
32	0x3d010000	0.03149414
33	0x3d0f0000	0.03491211
34	0x3cc30000	0.023803711
35	0x3d920000	0.07128906
36	0x3d1a0000	0.037597656
37	0x3d960000	0.07324219
38	0x3caf0000	0.021362305
39	0x3d420000	0.04736328
40	0x3d720000	0.05908203
41	0x3d590000	0.052978516
42	0x3d220000	0.03955078
43	0x3d7a0000	0.061035156
44	0x3d520000	0.05126953
45	0x3c780000	0.015136719
46	0x3dc70000	0.09716797
47	0x3c990000	0.018676758
48	0x3d4b0000	0.049560547
49	0x3dff0000	0.12451172
50	0x3cc70000	0.024291992
51	0x3d8f0000	0.06982422
52	0x3c9b0000	0.018920898
53	0x3da60000	0.08105469
54	0x3ded0000	0.115722656
55	0x3d150000	0.036376953
56	0x3d290000	0.041259766
57	0x3db10000	0.08642578
58	0x3d640000	0.055664062
59	0x3c450000	0.012023926
60	0x3d4c0000	0.049804688
61	0x3d610000	0.05493164
62	0x3cd40000	0.025878906
63	0x3d150000	0.036376953
64	0x3d110000	0.03540039
65	0x3d9b0000	0.075683594
66	0x3cf30000	0.029663086
67	0x3d830000	0.063964844
68	0x3dcf0000	0.10107422
69	0x3c970000	0.018432617
70	0x3d440000	0.047851562
71	0x3bcc0000	0.006225586
72	0x3d460000	0.048339844
73	0x3da10000	0.07861328
74	0x3d350000	0.044189453
75	0x3d490000	0.049072266
76	0x3c980000	0.018554688
77	0x3d3c0000	0.045898438
78	0x3d6c0000	0.057617188
79	0x3dab0000	0.083496094
80	0x3d9b0000	0.075683594
81	0x3d990000	0.07470703
82	0x3cef0000	0.029174805
83	0x3d0c0000	0.034179688
84	0x3cf40000	0.029785156
85	0x3d2b0000	0.041748047
86	0x3d250000	0.040283203
87	0x3c410000	0.011779785
88	0x3cd20000	0.025634766
89	0x3d100000	0.03515625
90	0x3c910000	0.017700195
91	0x3c670000	0.014099121
92	0x3dbf0000	0.09326172
93	0x3c070000	0.008239746
94	0x3d770000	0.060302734
95	0x3df30000	0.118652344
96	0x3d110000	0.03540039
97	0x3de60000	0.11230469
98	0x3d760000	0.060058594
99	0x3cb10000	0.021606445
100	0x3dc10000	0.09423828
101	0x3d1b0000	0.037841797
102	0x3d260000	0.040527344
103	0x3d8b0000	0.067871094
104	0x3c950000	0.018188477
105	0x3da70000	0.08154297
106	0x3c8f0000	0.017456055
107	0x3c9a0000	0.018798828
108	0x3d8a0000	0.06738281
109	0x3d880000	0.06640625
110	0x3d310000	0.04321289
111	0x3ca00000	0.01953125
112	0x3cec0000	0.028808594
113	0x3daf0000	0.08544922
114	0x3d030000	0.031982422
115	0x3d380000	0.044921875
116	0x3d290000	0.041259766
117	0x3dcf0000	0.10107422
118	0x3d660000	0.056152344
119	0x3d610000	0.05493164
120	0x3d7f0000	0.06225586
121	0x3daa0000	0.08300781
122	0x3d1d0000	0.038330078
123	0x3d7d0000	0.061767578
124	0x3c230000	0.0099487305
125	0x3dba0000	0.09082031
126	0x3d3d0000	0.046142578
127	0x3cf60000	0.030029297
128	0x3cf30000	0.029663086
129	0x3d1e0000	0.03857422
130	0x3d950000	0.072753906
131	0x3d330000	0.043701172
132	0x3d360000	0.044433594
133	0x3d7e0000	0.06201172
134	0x3cd70000	0.026245117
135	0x3cd00000	0.025390625
136	0x3d240000	0.040039062
137	0x3d490000	0.049072266
138	0x3d100000	0.03515625
139	0x3d0e0000	0.03466797
140	0x3d280000	0.041015625
141	0x3cac0000	0.020996094
142	0x3c420000	0.01184082
143	0x3d300000	0.04296875
144	0x3d5c0000	0.053710938
145	0x3d4c0000	0.049804688
146	0x3d250000	0.040283203
147	0x3d390000	0.045166016
148	0x3c910000	0.017700195
149	0x3d200000	0.0390625
150	0x3cbd0000	0.023071289
151	0x3d560000	0.052246094
152	0x3d1e0000	0.03857422
153	0x3d2d0000	0.042236328
154	0x3d0d0000	0.034423828
155	0x3d6c0000	0.057617188
156	0x3df50000	0.119628906
157	0x3d980000	0.07421875
158	0x3e1a0000	0.15039062
159	0x3d380000	0.044921875
160	0x3ced0000	0.028930664
161	0x3ce70000	0.028198242
162	0x3dd90000	0.10595703
163	0x3d880000	0.06640625
164	0x3cc10000	0.02355957
165	0x3ce00000	0.02734375
166	0x3cde0000	0.02709961
167	0x3ddf0000	0.10888672
168	0x3c400000	0.01171875
169	0x3d690000	0.056884766
170	0x3d6f0000	0.05834961
171	0x3d120000	0.03564453
172	0x3d350000	0.044189453
173	0x3df20000	0.11816406
174	0x3d6a0000	0.057128906
175	0x3dbc0000	0.091796875
176	0x3cf30000	0.029663086
177	0x3d1a0000	0.037597656
178	0x3d0c0000	0.034179688
179	0x3d640000	0.055664062
180	0x3d130000	0.035888672
181	0x3de60000	0.11230469
182	0x3cf30000	0.029663086
183	0x3d930000	0.071777344
184	0x3d970000	0.07373047
185	0x3d5c0000	0.053710938
186	0x3d2a0000	0.041503906
187	0x3d850000	0.064941406
188	0x3d0a0000	0.033691406
189	0x3da80000	0.08203125
190	0x3d7f0000	0.06225586
191	0x3d810000	0.06298828
192	0x3d500000	0.05078125
193	0x3db30000	0.087402344
194	0x3d3a0000	0.045410156
195	0x3d8a0000	0.06738281
196	0x3cbb0000	0.022827148
197	0x3ca10000	0.01965332
198	0x3d340000	0.043945312
199	0x3da30000	0.079589844
200	0x3d8a0000	0.06738281
201	0x3d140000	0.036132812
202	0x3d200000	0.0390625
203	0x3d970000	0.07373047
204	0x3e030000	0.12792969
205	0x3dac0000	0.083984375
206	0x3c480000	0.012207031
207	0x3d700000	0.05859375
208	0x3da00000	0.078125
209	0x3d3c0000	0.045898438
210	0x3d8d0000	0.068847656
211	0x3d8f0000	0.06982422
212	0x3d220000	0.03955078
213	0x3ca10000	0.01965332
214	0x3db40000	0.087890625
215	0x3d1e0000	0.03857422
216	0x3c4c0000	0.012451172
217	0x3d250000	0.040283203
218	0x3ce60000	0.028076172
219	0x3cf30000	0.029663086
220	0x3d690000	0.056884766
221	0x3da10000	0.07861328
222	0x3d0c0000	0.034179688
223	0x3d580000	0.052734375
224	0x3d7e0000	0.06201172
225	0x3d0c0000	0.034179688
226	0x3da90000	0.08251953
227	0x3dc10000	0.09423828
228	0x3db80000	0.08984375
229	0x3d370000	0.044677734
230	0x3d1c0000	0.038085938
231	0x3cbb0000	0.022827148
232	0x3d910000	0.07080078
233	0x3dbc0000	0.091796875
234	0x3d390000	0.045166016
235	0x3cc40000	0.023925781
236	0x3c480000	0.012207031
237	0x3d350000	0.044189453
238	0x3d0d0000	0.034423828
239	0x3d4c0000	0.049804688
240	0x3d2a0000	0.041503906
241	0x3d950000	0.072753906
242	0x3d780000	0.060546875
243	0x3c8b0000	0.016967773
244	0x3d7a0000	0.061035156
245	0x3c590000	0.013244629
246	0x3dc50000	0.096191406
247	0x3c470000	0.012145996
248	0x3d050000	0.032470703
249	0x3d310000	0.04321289
250	0x3cdf0000	0.02722168
251	0x3d9d0000	0.076660156
252	0x3d830000	0.063964844
253	0x3d120000	0.03564453
254	0x3ce60000	0.028076172
255	0x3cc00000	0.0234375

encoder.block.0.layer.1.layer_norm.weight f4 [1024]
0	0x3f250000	0.64453125
1	0x3efd0000	0.49414062
2	0x3e970000	0.29492188
3	0x3de30000	0.110839844
4	0x3ded0000	0.115722656
5	0x3e950000	0.29101562
6	0x3f120000	0.5703125
7	0x3e130000	0.14355469
8	0x3f100000	0.5625
9	0x3ef50000	0.47851562
10	0x3ee10000	0.43945312
11	0x3e840000	0.2578125
12	0x3e5b0000	0.21386719
13	0x3e5a0000	0.21289062
14	0x3ee40000	0.4453125
15	0x3c670000	0.014099121
16	0x3e690000	0.22753906
17	0x3e920000	0.28515625
18	0x3e1f0000	0.15527344
19	0x3e090000	0.13378906
20	0x3e700000	0.234375
21	0x3e510000	0.20410156
22	0x3dc20000	0.09472656
23	0x3e980000	0.296875
24	0x3eb50000	0.35351562
25	0x3ec00000	0.375
26	0x3e4d0000	0.20019531
27	0x3eb00000	0.34375
28	0x3e560000	0.20898438
29	0x3dce0000	0.10058594
30	0x3e1e0000	0.15429688
31	0x3eaa0000	0.33203125
32	0x3d2f0000	0.04272461
33	0x3e560000	0.20898438
34	0x3e890000	0.26757812
35	0x3ec70000	0.38867188
36	0x3e8f0000	0.27929688
37	0x3edb0000	0.42773438
38	0x3e580000	0.2109375
39	0x3ee40000	0.4453125
40	0x3f0d0000	0.55078125
41	0x3ea70000	0.32617188
42	0x3f000000	0.5
43	0x3e930000	0.28710938
44	0x3e7f0000	0.24902344
45	0x3cee0000	0.029052734
46	0x3f230000	0.63671875
47	0x3e9a0000	0.30078125
48	0x3e570000	0.20996094
49	0x3f000000	0.5
50	0x3ebf0000	0.37304688
51	0x3ed00000	0.40625
52	0x3ec70000	0.38867188
53	0x3eab0000	0.33398438
54	0x3ef50000	0.47851562
55	0x3e830000	0.25585938
56	0x3e9e0000	0.30859375
57	0x3eec0000	0.4609375
58	0x3e9a0000	0.30078125
59	0x3c4d0000	0.012512207
60	0x3edc0000	0.4296875
61	0x3ea00000	0.3125
62	0x3df60000	0.12011719
63	0x3e590000	0.21191406
64	0x3e600000	0.21875
65	0x3f060000	0.5234375
66	0x3e820000	0.25390625
67	0x3e670000	0.22558594
68	0x3ed40000	0.4140625
69	0x3df50000	0.119628906
70	0x3f390000	0.72265625
71	0x3e290000	0.16503906
72	0x3ea00000	0.3125
73	0x3f000000	0.5
74	0x3e470000	0.19433594
75	0x3df90000	0.12158203
76	0x3e5b0000	0.21386719
77	0x3ecc0000	0.3984375
78	0x3eab0000	0.33398438
79	0x3efa0000	0.48828125
80	0x3e900000	0.28125
81	0x3f0e0000	0.5546875
82	0x3e3f0000	0.18652344
83	0x3dee0000	0.11621094
84	0x3f0e0000	0.5546875
85	0x3ed60000	0.41796875
86	0x3e840000	0.2578125
87	0x3eb10000	0.34570312
88	0xbbdb0000	-0.0066833496
89	0x3de90000	0.11376953
90	0x3abd0000	0.0014419556
91	0x3e290000	0.16503906
92	0x3f220000	0.6328125
93	0x3de70000	0.11279297
94	0x3ef90000	0.48632812
95	0x3ee00000	0.4375
96	0x3e8f0000	0.27929688
97	0x3f060000	0.5234375
98	0x3ea90000	0.33007812
99	0x3e270000	0.16308594
100	0x3f0c0000	0.546875
101	0x3e6b0000	0.22949219
102	0x3e940000	0.2890625
103	0x3ee20000	0.44140625
104	0xbadc0000	-0.0016784668
105	0x3f0d0000	0.55078125
106	0x3f120000	0.5703125
107	0x3ed60000	0.41796875
108	0x3f1a0000	0.6015625
109	0x3eef0000	0.46679688
110	0x3eac0000	0.3359375
111	0x3bb60000	0.005554199
112	0x3dc30000	0.095214844
113	0x3f050000	0.51953125
114	0x3eb20000	0.34765625
115	0x3eb00000	0.34375
116	0x3e7f0000	0.24902344
117	0x3ee50000	0.44726562
118	0x3e970000	0.29492188
119	0x3ee00000	0.4375
120	0x3e8b0000	0.27148438
121	0x3f080000	0.53125
122	0x3e4e0000	0.20117188
123	0x3ede0000	0.43359375
124	0x3e930000	0.28710938
125	0x3f000000	0.5
126	0x3e200000	0.15625
127	0x3e320000	0.17382812
128	0x3e0b0000	0.13574219
129	0x3e440000	0.19140625
130	0x3efd0000	0.49414062
131	0x3e950000	0.29101562
132	0x3ebb0000	0.36523438
133	0x3f020000	0.5078125
134	0x3e930000	0.28710938
135	0x3e8e0000	0.27734375
136	0x3ece0000	0.40234375
137	0x3e920000	0.28515625
138	0x3bb10000	0.0054016113
139	0x3e3a0000	0.18164062
140	0x3ed10000	0.40820312
141	0x3e950000	0.29101562
142	0x3e1d0000	0.15332031
143	0x3e970000	0.29492188
144	0x3ec50000	0.38476562
145	0x3eae0000	0.33984375
146	0x3eff0000	0.49804688
147	0x3ebb0000	0.36523438
148	0x3dab0000	0.083496094
149	0x3ef80000	0.484375
150	0x3ebb0000	0.36523438
151	0x3eb70000	0.35742188
152	0x3ebb0000	0.36523438
153	0x3e990000	0.29882812
154	0x3e080000	0.1328125
155	0x3efc0000	0.4921875
156	0x3f120000	0.5703125
157	0x3eed0000	0.46289062
158	0x3f3f0000	0.74609375
159	0x3e3a0000	0.18164062
160	0x3e330000	0.17480469
161	0x3c320000	0.010864258
162	0x3f120000	0.5703125
163	0x3ec50000	0.38476562
164	0x3dba0000	0.09082031
165	0x3e290000	0.16503906
166	0x3e630000	0.22167969
167	0x3ef30000	0.47460938
168	0x3e2a0000	0.16601562
169	0x3e8e0000	0.27734375
170	0x3edf0000	0.43554688
171	0x3e040000	0.12890625
172	0x3f050000	0.51953125
173	0x3f2b0000	0.66796875
174	0x3ebb0000	0.36523438
175	0x3f140000	0.578125
176	0x3e020000	0.12695312
177	0x3e1c0000	0.15234375
178	0x3eb80000	0.359375
179	0x3ed50000	0.41601562
180	0x3e360000	0.17773438
181	0x3f1e0000	0.6171875
182	0x3e010000	0.12597656
183	0x3f0d0000	0.55078125
184	0x3f060000	0.5234375
185	0x3eb40000	0.3515625
186	0x3e8e0000	0.27734375
187	0x3ecc0000	0.3984375
188	0x3eb60000	0.35546875
189	0x3f0e0000	0.5546875
190	0x3ef70000	0.48242188
191	0x3eb70000	0.35742188
192	0x3e990000	0.29882812
193	0x3f080000	0.53125
194	0x3e1c0000	0.15234375
195	0x3eab0000	0.33398438
196	0xbb930000	-0.004486084
197	0x3a820000	0.0009918213
198	0x3e330000	0.17480469
199	0x3eee0000	0.46484375
200	0x3f0d0000	0.55078125
201	0x3cd90000	0.026489258
202	0x3e7c0000	0.24609375
203	0x3ed40000	0.4140625
204	0x3f2c0000	0.671875
205	0x3e760000	0.24023438
206	0x3d930000	0.071777344
207	0x3ea70000	0.32617188
208	0x3eb30000	0.34960938
209	0x3ecc0000	0.3984375
210	0x3ecb0000	0.39648438
211	0x3f150000	0.58203125
212	0x3ea50000	0.32226562
213	0x3c5b0000	0.013366699
214	0x3ed60000	0.41796875
215	0x3e960000	0.29296875
216	0x3e440000	0.19140625
217	0x3f120000	0.5703125
218	0x3e4a0000	0.19726562
219	0x3ec30000	0.38085938
220	0x3ee10000	0.43945312
221	0x3efb0000	0.49023438
222	0x3e6b0000	0.22949219
223	0x3f280000	0.65625
224	0x3e940000	0.2890625
225	0x3e360000	0.17773438
226	0x3f0c0000	0.546875
227	0x3efd0000	0.49414062
228	0x3eea0000	0.45703125
229	0x3ea50000	0.32226562
230	0x3e560000	0.20898438
231	0x3e2f0000	0.17089844
232	0x3ef70000	0.48242188
233	0x3eff0000	0.49804688
234	0x3e370000	0.17871094
235	0x3f0e0000	0.5546875
236	0x3dae0000	0.08496094
237	0x3ead0000	0.33789062
238	0x3f270000	0.65234375
239	0x3ea90000	0.33007812
240	0x3eee0000	0.46484375
241	0x3efa0000	0.48828125
242	0x3f080000	0.53125
243	0x3e360000	0.17773438
244	0x3e6e0000	0.23242188
245	0x3e010000	0.12597656
246	0x3ef60000	0.48046875
247	0x3e180000	0.1484375
248	0x3e0b0000	0.13574219
249	0x3e480000	0.1953125
250	0x3e500000	0.203125
251	0x3efd0000	0.49414062
252	0x3e870000	0.26367188
253	0x3efc0000	0.4921875
254	0x3dc50000	0.096191406
255	0x3ec20000	0.37890625

encoder.block.1.layer.0.layer_norm.weight f4 [1024]
0	0x3eb80000	0.359375
1	0x3ead0000	0.33789062
2	0x3e870000	0.26367188
3	0x3e4e0000	0.20117188
4	0x3d950000	0.072753906
5	0x3e9b0000	0.30273438
6	0x3ec80000	0.390625
7	0x3d5d0000	0.053955078
8	0x3eaa0000	0.33203125
9	0x3e8e0000	0.27734375
10	0x3e1b0000	0.15136719
11	0x3e740000	0.23828125
12	0x3e980000	0.296875
13	0x3d320000	0.04345703
14	0x3eae0000	0.33984375
15	0x3d4c0000	0.049804688
16	0x3e8b0000	0.27148438
17	0x3e6d0000	0.23144531
18	0x3dfa0000	0.12207031
19	0x3db50000	0.088378906
20	0x3e8c0000	0.2734375
21	0x3df10000	0.11767578
22	0x3cc70000	0.024291992
23	0x3e970000	0.29492188
24	0x3e870000	0.26367188
25	0x3e980000	0.296875
26	0x3e860000	0.26171875
27	0x3eab0000	0.33398438
28	0x3e8b0000	0.27148438
29	0x3e170000	0.14746094
30	0x3d800000	0.0625
31	0x3e920000	0.28515625
32	0x3cb80000	0.022460938
33	0x3e190000	0.14941406
34	0x3e840000	0.2578125
35	0x3ea60000	0.32421875
36	0x3e9c0000	0.3046875
37	0x3ea20000	0.31640625
38	0x3e780000	0.2421875
39	0x3ea00000	0.3125
40	0x3e8d0000	0.27539062
41	0x3ea60000	0.32421875
42	0x3eb00000	0.34375
43	0x3e910000	0.28320312
44	0x3eab0000	0.33398438
45	0x3d380000	0.044921875
46	0x3ebd0000	0.36914062
47	0x3e7a0000	0.24414062
48	0x3e8e0000	0.27734375
49	0x3ebe0000	0.37109375
50	0x3b710000	0.0036773682
51	0x3ec20000	0.37890625
52	0x3db20000	0.08691406
53	0x3ea50000	0.32226562
54	0x3eaf0000	0.34179688
55	0x3e740000	0.23828125
56	0x3e900000	0.28125
57	0x3eb00000	0.34375
58	0x3e4f0000	0.20214844
59	0x3dbe0000	0.09277344
60	0x3e9e0000	0.30859375
61	0x3e8b0000	0.27148438
62	0x3e2c0000	0.16796875
63	0x3e930000	0.28710938
64	0x3e740000	0.23828125
65	0x3ea90000	0.33007812
66	0x3e9d0000	0.30664062
67	0x3e850000	0.25976562
68	0x3eb00000	0.34375
69	0x3db40000	0.087890625
70	0x3ea20000	0.31640625
71	0x3e210000	0.15722656
72	0x3e280000	0.1640625
73	0x3ea70000	0.32617188
74	0x3e580000	0.2109375
75	0x3e820000	0.25390625
76	0x3d9d0000	0.076660156
77	0x3eaf0000	0.34179688
78	0x3e920000	0.28515625
79	0x3e9d0000	0.30664062
80	0x3e8d0000	0.27539062
81	0x3ead0000	0.33789062
82	0x3dc50000	0.096191406
83	0x3dfd0000	0.123535156
84	0x3e020000	0.12695312
85	0x3e8f0000	0.27929688
86	0x3e9c0000	0.3046875
87	0xb9eb0000	-0.00044822693
88	0x3c440000	0.011962891
89	0x3de50000	0.111816406
90	0x3d400000	0.046875
91	0x3deb0000	0.114746094
92	0x3ed00000	0.40625
93	0x3d930000	0.071777344
94	0x3ec80000	0.390625
95	0x3ea70000	0.32617188
96	0x3e8b0000	0.27148438
97	0x3ec90000	0.39257812
98	0x3e9e0000	0.30859375
99	0x3e380000	0.1796875
100	0x3ed60000	0.41796875
101	0x3e560000	0.20898438
102	0x3e970000	0.29492188
103	0x3e700000	0.234375
104	0x3d200000	0.0390625
105	0x3ead0000	0.33789062
106	0x3e970000	0.29492188
107	0x3e990000	0.29882812
108	0x3ec60000	0.38671875
109	0x3ecd0000	0.40039062
110	0x3dab0000	0.083496094
111	0x3d0e0000	0.03466797
112	0x3e3a0000	0.18164062
113	0x3ebb0000	0.36523438
114	0x3e830000	0.25585938
115	0x3e9d0000	0.30664062
116	0x3e710000	0.23535156
117	0x3eb20000	0.34765625
118	0x3eae0000	0.33984375
119	0x3eaa0000	0.33203125
120	0x3e8c0000	0.2734375
121	0x3eb70000	0.35742188
122	0x3e8c0000	0.2734375
123	0x3e8f0000	0.27929688
124	0x3e530000	0.20605469
125	0x3ea20000	0.31640625
126	0x3e520000	0.20507812
127	0x3e240000	0.16015625
128	0x3e690000	0.22753906
129	0x3e030000	0.12792969
130	0x3e6b0000	0.22949219
131	0x3e8d0000	0.27539062
132	0x3e630000	0.22167969
133	0x3eac0000	0.3359375
134	0x3e7f0000	0.24902344
135	0x3e810000	0.25195312
136	0x3eac0000	0.3359375
137	0x3e630000	0.22167969
138	0x3ddc0000	0.107421875
139	0x3e670000	0.22558594
140	0x3e780000	0.2421875
141	0xbac20000	-0.0014801025
142	0x3dbe0000	0.09277344
143	0x3e8f0000	0.27929688
144	0x3e760000	0.24023438
145	0x3e200000	0.15625
146	0x3e930000	0.28710938
147	0x3e9d0000	0.30664062
148	0x3dcc0000	0.099609375
149	0x3ea40000	0.3203125
150	0x3b2b0000	0.002609253
151	0x3e8f0000	0.27929688
152	0x3e9e0000	0.30859375
153	0x3e820000	0.25390625
154	0x3da00000	0.078125
155	0x3e9c0000	0.3046875
156	0x3e8a0000	0.26953125
157	0x3e890000	0.26757812
158	0x3f000000	0.5
159	0x3da20000	0.07910156
160	0x3dde0000	0.10839844
161	0x3da10000	0.07861328
162	0x3ecf0000	0.40429688
163	0x3eb60000	0.35546875
164	0x3db60000	0.08886719
165	0x3e600000	0.21875
166	0x3e6a0000	0.22851562
167	0x3eb50000	0.35351562
168	0x3e060000	0.13085938
169	0x3e900000	0.28125
170	0x3ec10000	0.37695312
171	0x3e1f0000	0.15527344
172	0x3ea90000	0.33007812
173	0x3edd0000	0.43164062
174	0x3e9f0000	0.31054688
175	0x3ecc0000	0.3984375
176	0x3ddb0000	0.106933594
177	0x3e3c0000	0.18359375
178	0x3e970000	0.29492188
179	0x3eb30000	0.34960938
180	0x3e840000	0.2578125
181	0x3edb0000	0.42773438
182	0x3da70000	0.08154297
183	0x3ec80000	0.390625
184	0x3e9e0000	0.30859375
185	0x3e950000	0.29101562
186	0x3e8b0000	0.27148438
187	0x3eb60000	0.35546875
188	0x3de10000	0.10986328
189	0x3ea40000	0.3203125
190	0x3eb70000	0.35742188
191	0x3e820000	0.25390625
192	0x3e4c0000	0.19921875
193	0x3eb10000	0.34570312
194	0x3e8a0000	0.26953125
195	0x3e9e0000	0.30859375
196	0x3d270000	0.040771484
197	0x3da60000	0.08105469
198	0x3e650000	0.22363281
199	0x3eb80000	0.359375
200	0x3ec00000	0.375
201	0x3e900000	0.28125
202	0x3e8c0000	0.2734375
203	0x3ea70000	0.32617188
204	0x3f000000	0.5
205	0x3ea90000	0.33007812
206	0x3b560000	0.0032653809
207	0x3e780000	0.2421875
208	0x3e570000	0.20996094
209	0x3e9d0000	0.30664062
210	0x3e930000	0.28710938
211	0x3eca0000	0.39453125
212	0x3ea80000	0.328125
213	0x3d270000	0.040771484
214	0x3ea50000	0.32226562
215	0x3eaa0000	0.33203125
216	0x3e400000	0.1875
217	0x3ec40000	0.3828125
218	0x3e0e0000	0.13867188
219	0x3e5f0000	0.21777344
220	0x3e720000	0.23632812
221	0x3eb40000	0.3515625
222	0x3e880000	0.265625
223	0x3ecb0000	0.39648438
224	0x3e900000	0.28125
225	0x3e810000	0.25195312
226	0x3eb00000	0.34375
227	0x3eb50000	0.35351562
228	0x3eaa0000	0.33203125
229	0x3e6f0000	0.23339844
230	0x3e7d0000	0.24707031
231	0x3d550000	0.052001953
232	0x3eb40000	0.3515625
233	0x3eab0000	0.33398438
234	0x3e850000	0.25976562
235	0x3e600000	0.21875
236	0x3e060000	0.13085938
237	0x3ea10000	0.31445312
238	0x3eab0000	0.33398438
239	0x3e890000	0.26757812
240	0x3ea90000	0.33007812
241	0x3ea40000	0.3203125
242	0x3ea40000	0.3203125
243	0x3e760000	0.24023438
244	0x3e0d0000	0.13769531
245	0x3e2b0000	0.16699219
246	0x3e9e0000	0.30859375
247	0x3df30000	0.118652344
248	0x3d320000	0.04345703
249	0x3e5c0000	0.21484375
250	0x3e7e0000	0.24804688
251	0x3ead0000	0.33789062
252	0x3e430000	0.19042969
253	0x3e8d0000	0.27539062
254	0x3d3e0000	0.04638672
255	0x3cd00000	0.025390625

encoder.block.1.layer.1.layer_norm.weight f4 [1024]
0	0x3f5d0000	0.86328125
1	0x3f690000	0.91015625
2	0x3f0c0000	0.546875
3	0x3eae0000	0.33984375
4	0x3c390000	0.011291504
5	0x3f4b0000	0.79296875
6	0x3f700000	0.9375
7	0x3b1a0000	0.0023498535
8	0x3f7a0000	0.9765625
9	0x3f490000	0.78515625
10	0x3f290000	0.66015625
11	0x3f060000	0.5234375
12	0x3f030000	0.51171875
13	0x3c0b0000	0.008483887
14	0x3f330000	0.69921875
15	0x3c720000	0.014770508
16	0x3f310000	0.69140625
17	0x3ee10000	0.43945312
18	0x3dda0000	0.10644531
19	0x3d370000	0.044677734
20	0x3f610000	0.87890625
21	0x3e860000	0.26171875
22	0xbbb50000	-0.0055236816
23	0x3f300000	0.6875
24	0x3f230000	0.63671875
25	0x3f440000	0.765625
26	0x3f110000	0.56640625
27	0x3f470000	0.77734375
28	0x3f690000	0.91015625
29	0x3da80000	0.08203125
30	0x3c730000	0.014831543
31	0x3f3f0000	0.74609375
32	0x3d920000	0.07128906
33	0x3e600000	0.21875
34	0x3f300000	0.6875
35	0x3f200000	0.625
36	0x3f160000	0.5859375
37	0x3f480000	0.78125
38	0x3ecb0000	0.39648438
39	0x3f5a0000	0.8515625
40	0x3f630000	0.88671875
41	0x3f480000	0.78125
42	0x3f4f0000	0.80859375
43	0x3f250000	0.64453125
44	0x3f550000	0.83203125
45	0x3be80000	0.007080078
46	0x3f700000	0.9375
47	0x3f470000	0.77734375
48	0x3ef60000	0.48046875
49	0x3f460000	0.7734375
50	0x3b8d0000	0.0043029785
51	0x3f7f0000	0.99609375
52	0x3b970000	0.0046081543
53	0x3f370000	0.71484375
54	0x3f540000	0.828125
55	0x3ef70000	0.48242188
56	0x3f3c0000	0.734375
57	0x3f4b0000	0.79296875
58	0x3eaa0000	0.33203125
59	0x3cbf0000	0.02331543
60	0x3f490000	0.78515625
61	0x3f350000	0.70703125
62	0x3d1b0000	0.037841797
63	0x3f430000	0.76171875
64	0x3efb0000	0.49023438
65	0x3f340000	0.703125
66	0x3f650000	0.89453125
67	0x3f250000	0.64453125
68	0x3f210000	0.62890625
69	0x3ce70000	0.028198242
70	0x3f630000	0.88671875
71	0x3f0f0000	0.55859375
72	0x3f030000	0.51171875
73	0x3f4d0000	0.80078125
74	0x3ea20000	0.31640625
75	0x3ef50000	0.47851562
76	0x3f1a0000	0.6015625
77	0x3f6f0000	0.93359375
78	0x3f3c0000	0.734375
79	0x3f630000	0.88671875
80	0x3f060000	0.5234375
81	0x3f730000	0.94921875
82	0x3d810000	0.06298828
83	0x3bda0000	0.006652832
84	0x3f4f0000	0.80859375
85	0x3f270000	0.65234375
86	0x3f360000	0.7109375
87	0x3c9f0000	0.01940918
88	0x3cb50000	0.022094727
89	0xbbab0000	-0.005218506
90	0xbc110000	-0.008850098
91	0x3e850000	0.25976562
92	0x3f620000	0.8828125
93	0x3e190000	0.14941406
94	0x3f760000	0.9609375
95	0x3f360000	0.7109375
96	0x3f0e0000	0.5546875
97	0x3f630000	0.88671875
98	0x3f370000	0.71484375
99	0x3ca30000	0.019897461
100	0x3f810000	1.0078125
101	0x3f070000	0.52734375
102	0x3f3a0000	0.7265625
103	0x3f390000	0.72265625
104	0xbc9d0000	-0.019165039
105	0x3f490000	0.78515625
106	0x3f580000	0.84375
107	0x3f3c0000	0.734375
108	0x3f580000	0.84375
109	0x3f670000	0.90234375
110	0x3e200000	0.15625
111	0xbb8d0000	-0.0043029785
112	0x3ec20000	0.37890625
113	0x3f550000	0.83203125
114	0x3f4b0000	0.79296875
115	0x3f310000	0.69140625
116	0x3eff0000	0.49804688
117	0x3f560000	0.8359375
118	0x3f5b0000	0.85546875
119	0x3f480000	0.78125
120	0x3ef60000	0.48046875
121	0x3f590000	0.84765625
122	0x3f0d0000	0.55078125
123	0x3f2b0000	0.66796875
124	0x3ee60000	0.44921875
125	0x3f290000	0.66015625
126	0x3eb60000	0.35546875
127	0x3df90000	0.12158203
128	0x3f070000	0.52734375
129	0x3e5f0000	0.21777344
130	0x3f280000	0.65625
131	0x3f2e0000	0.6796875
132	0x3f030000	0.51171875
133	0x3f6f0000	0.93359375
134	0x3f4b0000	0.79296875
135	0x3eb30000	0.34960938
136	0x3f580000	0.84375
137	0x3ef40000	0.4765625
138	0x3d540000	0.051757812
139	0x3f050000	0.51953125
140	0x3f530000	0.82421875
141	0x3b840000	0.0040283203
142	0x3e440000	0.19140625
143	0x3f270000	0.65234375
144	0x3f150000	0.58203125
145	0x3ebb0000	0.36523438
146	0x3f550000	0.83203125
147	0x3f370000	0.71484375
148	0x3e910000	0.28320312
149	0x3f5a0000	0.8515625
150	0x3bc00000	0.005859375
151	0x3f270000	0.65234375
152	0x3f3f0000	0.74609375
153	0x3f1f0000	0.62109375
154	0x3cd00000	0.025390625
155	0x3f420000	0.7578125
156	0x3f4f0000	0.80859375
157	0x3f450000	0.76953125
158	0x3f960000	1.171875
159	0xbac60000	-0.0015106201
160	0x3e030000	0.12792969
161	0x3c270000	0.010192871
162	0x3f640000	0.890625
163	0x3f3d0000	0.73828125
164	0x3ccf0000	0.025268555
165	0x3f080000	0.53125
166	0x3f250000	0.64453125
167	0x3f690000	0.91015625
168	0x3ed40000	0.4140625
169	0x3f050000	0.51953125
170	0x3f5f0000	0.87109375
171	0x3dc50000	0.096191406
172	0x3f3c0000	0.734375
173	0x3f6e0000	0.9296875
174	0x3f390000	0.72265625
175	0x3f820000	1.015625
176	0x3ea30000	0.31835938
177	0x3e990000	0.29882812
178	0x3f4e0000	0.8046875
179	0x3f310000	0.69140625
180	0x3f140000	0.578125
181	0x3f7c0000	0.984375
182	0xbc0f0000	-0.008728027
183	0x3f7f0000	0.99609375
184	0x3f300000	0.6875
185	0x3f080000	0.53125
186	0x3f0d0000	0.55078125
187	0x3f470000	0.77734375
188	0x3f320000	0.6953125
189	0x3f580000	0.84375
190	0x3f4c0000	0.796875
191	0x3f2d0000	0.67578125
192	0x3f070000	0.52734375
193	0x3f5c0000	0.859375
194	0x3f1e0000	0.6171875
195	0x3f4d0000	0.80078125
196	0x3b270000	0.0025482178
197	0x3c1a0000	0.009399414
198	0x3ebc0000	0.3671875
199	0x3f720000	0.9453125
200	0x3f650000	0.89453125
201	0x3f2f0000	0.68359375
202	0x3f1b0000	0.60546875
203	0x3f490000	0.78515625
204	0x3f900000	1.125
205	0x3f070000	0.52734375
206	0x3e3d0000	0.18457031
207	0x3f1d0000	0.61328125
208	0x3ead0000	0.33789062
209	0x3f2f0000	0.68359375
210	0x3f2e0000	0.6796875
211	0x3f630000	0.88671875
212	0x3f650000	0.89453125
213	0x3c0e0000	0.008666992
214	0x3f2f0000	0.68359375
215	0x3f400000	0.75
216	0x3ef80000	0.484375
217	0x3f7f0000	0.99609375
218	0x3e070000	0.13183594
219	0x3f3b0000	0.73046875
220	0x3f2d0000	0.67578125
221	0x3f820000	1.015625
222	0x3f2b0000	0.66796875
223	0x3f730000	0.94921875
224	0x3f100000	0.5625
225	0x3ee50000	0.44726562
226	0x3f6f0000	0.93359375
227	0x3f680000	0.90625
228	0x3f3e0000	0.7421875
229	0x3f0e0000	0.5546875
230	0x3f1d0000	0.61328125
231	0x3f070000	0.52734375
232	0x3f600000	0.875
233	0x3f4f0000	0.80859375
234	0x3f470000	0.77734375
235	0x3f470000	0.77734375
236	0x3e4a0000	0.19726562
237	0x3f2b0000	0.66796875
238	0x3f3f0000	0.74609375
239	0x3f100000	0.5625
240	0x3f670000	0.90234375
241	0x3f5c0000	0.859375
242	0x3f740000	0.953125
243	0x3f3b0000	0.73046875
244	0x3c100000	0.0087890625
245	0x3ed50000	0.41601562
246	0x3f3d0000	0.73828125
247	0x3ca80000	0.020507812
248	0xbb6e0000	-0.0036315918
249	0x3eec0000	0.4609375
250	0x3f2e0000	0.6796875
251	0x3f500000	0.8125
252	0x3e6c0000	0.23046875
253	0x3f630000	0.88671875
254	0xbc800000	-0.015625
255	0x3df30000	0.118652344

encoder.block.2.layer.0.layer_norm.weight f4 [1024]
0	0x3f080000	0.53125
1	0x3ee40000	0.4453125
2	0x3eae0000	0.33984375
3	0x3ea50000	0.32226562
4	0x3e2a0000	0.16601562
5	0x3ee50000	0.44726562
6	0x3f070000	0.52734375
7	0x3d870000	0.06591797
8	0x3f000000	0.5
9	0x3eb90000	0.36132812
10	0x3e820000	0.25390625
11	0x3e960000	0.29296875
12	0x3ec50000	0.38476562
13	0x3d3f0000	0.04663086
14	0x3ede0000	0.43359375
15	0x3d720000	0.05908203
16	0x3eba0000	0.36328125
17	0x3eb10000	0.34570312
18	0x3e580000	0.2109375
19	0x3e1f0000	0.15527344
20	0x3ee50000	0.44726562
21	0x3e410000	0.18847656
22	0x3cb40000	0.021972656
23	0x3ec60000	0.38671875
24	0x3ebc0000	0.3671875
25	0x3ec90000	0.39257812
26	0x3edb0000	0.42773438
27	0x3edb0000	0.42773438
28	0x3edc0000	0.4296875
29	0x3e780000	0.2421875
30	0x3e0a0000	0.13476562
31	0x3ead0000	0.33789062
32	0xbadb0000	-0.0016708374
33	0x3e5e0000	0.21679688
34	0x3ebb0000	0.36523438
35	0x3ecf0000	0.40429688
36	0x3ec90000	0.39257812
37	0x3ed50000	0.41601562
38	0x3ea80000	0.328125
39	0x3eb90000	0.36132812
40	0x3eac0000	0.3359375
41	0x3ee20000	0.44140625
42	0x3ee10000	0.43945312
43	0x3ec70000	0.38867188
44	0x3ee60000	0.44921875
45	0x3d3e0000	0.04638672
46	0x3ef70000	0.48242188
47	0x3ecb0000	0.39648438
48	0x3ea90000	0.33007812
49	0x3ef30000	0.47460938
50	0xba700000	-0.00091552734
51	0x3f0f0000	0.55859375
52	0x3de30000	0.110839844
53	0x3ed70000	0.41992188
54	0x3edf0000	0.43554688
55	0x3ea70000	0.32617188
56	0x3ecc0000	0.3984375
57	0x3ed80000	0.421875
58	0x3e930000	0.28710938
59	0x3e1f0000	0.15527344
60	0x3ee30000	0.44335938
61	0x3e550000	0.20800781
62	0x3e700000	0.234375
63	0x3ee70000	0.45117188
64	0x3eb10000	0.34570312
65	0x3ee90000	0.45507812
66	0x3f070000	0.52734375
67	0x3ec50000	0.38476562
68	0x3ed90000	0.42382812
69	0x3e300000	0.171875
70	0x3ef80000	0.484375
71	0x3e9c0000	0.3046875
72	0x3e0a0000	0.13476562
73	0x3ecb0000	0.39648438
74	0x3ea30000	0.31835938
75	0x3ea90000	0.33007812
76	0x3e070000	0.13183594
77	0x3f140000	0.578125
78	0x3ecf0000	0.40429688
79	0x3edf0000	0.43554688
80	0x3ea90000	0.33007812
81	0x3eed0000	0.46289062
82	0x3dd70000	0.10498047
83	0x3e3b0000	0.18261719
84	0x3e010000	0.12597656
85	0x3eac0000	0.3359375
86	0x3eef0000	0.46679688
87	0x3d150000	0.036376953
88	0x3dc80000	0.09765625
89	0x3de90000	0.11376953
90	0x3d2a0000	0.041503906
91	0x3e790000	0.24316406
92	0x3f020000	0.5078125
93	0x3e2f0000	0.17089844
94	0x3f050000	0.51953125
95	0x3ecf0000	0.40429688
96	0x3ec20000	0.37890625
97	0x3eed0000	0.46289062
98	0x3ecb0000	0.39648438
99	0x3e750000	0.23925781
100	0x3f140000	0.578125
101	0x3ea10000	0.31445312
102	0x3ed50000	0.41601562
103	0x3ea50000	0.32226562
104	0x3d490000	0.049072266
105	0x3ec60000	0.38671875
106	0x3ec40000	0.3828125
107	0x3ed70000	0.41992188
108	0x3ede0000	0.43359375
109	0x3efe0000	0.49609375
110	0x3e240000	0.16015625
111	0x3d620000	0.05517578
112	0x3e670000	0.22558594
113	0x3ee60000	0.44921875
114	0x3ef30000	0.47460938
115	0x3ed00000	0.40625
116	0x3e920000	0.28515625
117	0x3ed10000	0.40820312
118	0x3eca0000	0.39453125
119	0x3eee0000	0.46484375
120	0x3e9f0000	0.31054688
121	0x3ee00000	0.4375
122	0x3eb10000	0.34570312
123	0x3ec10000	0.37695312
124	0x3e9a0000	0.30078125
125	0x3ed70000	0.41992188
126	0x3e940000	0.2890625
127	0x3e880000	0.265625
128	0x3e9a0000	0.30078125
129	0x3e290000	0.16503906
130	0x3e820000	0.25390625
131	0x3ed80000	0.421875
132	0x3ea70000	0.32617188
133	0x3ede0000	0.43359375
134	0x3ecb0000	0.39648438
135	0x3e9f0000	0.31054688
136	0x3ee80000	0.453125
137	0x3ea30000	0.31835938
138	0x3e210000	0.15722656
139	0x3e950000	0.29101562
140	0x3e940000	0.2890625
141	0x3cdb0000	0.026733398
142	0x3e260000	0.16210938
143	0x3eb00000	0.34375
144	0x3e9a0000	0.30078125
145	0x3e810000	0.25195312
146	0x3ec30000	0.38085938
147	0x3ee00000	0.4375
148	0x3dc70000	0.09716797
149	0x3eef0000	0.46679688
150	0x3d680000	0.056640625
151	0x3ebe0000	0.37109375
152	0x3edb0000	0.42773438
153	0x3eb60000	0.35546875
154	0x3db20000	0.08691406
155	0x3edd0000	0.43164062
156	0x3ea40000	0.3203125
157	0x3ea60000	0.32421875
158	0x3f1f0000	0.62109375
159	0x3de90000	0.11376953
160	0x3e3c0000	0.18359375
161	0x3ddc0000	0.107421875
162	0x3f080000	0.53125
163	0x3ed80000	0.421875
164	0x3e2a0000	0.16601562
165	0x3ebb0000	0.36523438
166	0x3ec50000	0.38476562
167	0x3ee40000	0.4453125
168	0x3e830000	0.25585938
169	0x3ed60000	0.41796875
170	0x3eed0000	0.46289062
171	0x3e510000	0.20410156
172	0x3eec0000	0.4609375
173	0x3f040000	0.515625
174	0x3ec30000	0.38085938
175	0x3f140000	0.578125
176	0x3e8a0000	0.26953125
177	0x3e810000	0.25195312
178	0x3ecd0000	0.40039062
179	0x3ee50000	0.44726562
180	0x3eb90000	0.36132812
181	0x3f070000	0.52734375
182	0x3dfc0000	0.123046875
183	0x3f010000	0.50390625
184	0x3ec50000	0.38476562
185	0x3eb80000	0.359375
186	0x3ea50000	0.32226562
187	0x3eeb0000	0.45898438
188	0x3de10000	0.10986328
189	0x3ec20000	0.37890625
190	0x3edb0000	0.42773438
191	0x3eac0000	0.3359375
192	0x3e9f0000	0.31054688
193	0x3ed00000	0.40625
194	0x3eb90000	0.36132812
195	0x3ee90000	0.45507812
196	0x3da00000	0.078125
197	0x3e090000	0.13378906
198	0x3ea00000	0.3125
199	0x3efb0000	0.49023438
200	0x3ef80000	0.484375
201	0x3ecf0000	0.40429688
202	0x3ec70000	0.38867188
203	0x3ede0000	0.43359375
204	0x3f1a0000	0.6015625
205	0x3eae0000	0.33984375
206	0xbaea0000	-0.0017852783
207	0x3eb80000	0.359375
208	0x3e8f0000	0.27929688
209	0x3ec20000	0.37890625
210	0x3eaf0000	0.34179688
211	0x3f0b0000	0.54296875
212	0x3ef70000	0.48242188
213	0x3da10000	0.07861328
214	0x3ed00000	0.40625
215	0x3eeb0000	0.45898438
216	0x3eb00000	0.34375
217	0x3f120000	0.5703125
218	0x3e5c0000	0.21484375
219	0x3eae0000	0.33984375
220	0x3e940000	0.2890625
221	0x3edb0000	0.42773438
222	0x3ec10000	0.37695312
223	0x3f0b0000	0.54296875
224	0x3ebc0000	0.3671875
225	0x3ea30000	0.31835938
226	0x3ef70000	0.48242188
227	0x3ee30000	0.44335938
228	0x3ed20000	0.41015625
229	0x3eaa0000	0.33203125
230	0x3eb60000	0.35546875
231	0x3d820000	0.06347656
232	0x3ee30000	0.44335938
233	0x3edd0000	0.43164062
234	0x3eda0000	0.42578125
235	0x3eb90000	0.36132812
236	0x3e4f0000	0.20214844
237	0x3edf0000	0.43554688
238	0x3ed10000	0.40820312
239	0x3e9e0000	0.30859375
240	0x3edd0000	0.43164062
241	0x3ec20000	0.37890625
242	0x3ed20000	0.41015625
243	0x3eca0000	0.39453125
244	0x3e280000	0.1640625
245	0x3ea50000	0.32226562
246	0x3eca0000	0.39453125
247	0x3e250000	0.16113281
248	0x3d2d0000	0.042236328
249	0x3eac0000	0.3359375
250	0x3ec10000	0.37695312
251	0x3ec40000	0.3828125
252	0x3e820000	0.25390625
253	0x3edc0000	0.4296875
254	0x3dab0000	0.083496094
255	0x3e330000	0.17480469

encoder.block.2.layer.1.layer_norm.weight f4 [1024]
0	0x3f8c0000	1.09375
1	0x3f970000	1.1796875
2	0x3f4c0000	0.796875
3	0x3f120000	0.5703125
4	0x3c9f0000	0.01940918
5	0x3f7b0000	0.98046875
6	0x3f9f0000	1.2421875
7	0x3d050000	0.032470703
8	0x3fa50000	1.2890625
9	0x3f740000	0.953125
10	0x3f870000	1.0546875
11	0x3f140000	0.578125
12	0x3f5e0000	0.8671875
13	0x3ccb0000	0.024780273
14	0x3f6d0000	0.92578125
15	0x3c970000	0.018432617
16	0x3f450000	0.76953125
17	0x3f240000	0.640625
18	0x3efc0000	0.4921875
19	0x3ebf0000	0.37304688
20	0x3f970000	1.1796875
21	0x3f390000	0.72265625
22	0xbaa00000	-0.0012207031
23	0x3f650000	0.89453125
24	0x3f490000	0.78515625
25	0x3f6c0000	0.921875
26	0x3f5f0000	0.87109375
27	0x3f930000	1.1484375
28	0x3f8a0000	1.078125
29	0x3e8d0000	0.27539062
30	0x3e7e0000	0.24804688
31	0x3f750000	0.95703125
32	0x3e180000	0.1484375
33	0x3ee10000	0.43945312
34	0x3f780000	0.96875
35	0x3f4a0000	0.7890625
36	0x3f320000	0.6953125
37	0x3f780000	0.96875
38	0x3f160000	0.5859375
39	0x3f8e0000	1.109375
40	0x3f7d0000	0.98828125
41	0x3f8a0000	1.078125
42	0x3f7f0000	0.99609375
43	0x3f560000	0.8359375
44	0x3f970000	1.1796875
45	0x3a730000	0.00092697144
46	0x3f920000	1.140625
47	0x3f910000	1.1328125
48	0x3f310000	0.69140625
49	0x3f810000	1.0078125
50	0xbc7c0000	-0.015380859
51	0x3fa40000	1.28125
52	0x3e400000	0.1875
53	0x3f6d0000	0.92578125
54	0x3f830000	1.0234375
55	0x3f410000	0.75390625
56	0x3f540000	0.828125
57	0x3f820000	1.015625
58	0x3f1e0000	0.6171875
59	0x3e660000	0.22460938
60	0x3f920000	1.140625
61	0x3f570000	0.83984375
62	0x3ef50000	0.47851562
63	0x3f8d0000	1.1015625
64	0x3f480000	0.78125
65	0x3f740000	0.953125
66	0x3f990000	1.1953125
67	0x3f6e0000	0.9296875
68	0x3f5d0000	0.86328125
69	0x3e990000	0.29882812
70	0x3f8d0000	1.1015625
71	0x3f840000	1.03125
72	0x3f2c0000	0.671875
73	0x3f8c0000	1.09375
74	0x3f1e0000	0.6171875
75	0x3f4d0000	0.80078125
76	0x3f690000	0.91015625
77	0x3fbb0000	1.4609375
78	0x3f870000	1.0546875
79	0x3f790000	0.97265625
80	0x3f1a0000	0.6015625
81	0x3f9a0000	1.203125
82	0x3e930000	0.28710938
83	0x3d7c0000	0.061523438
84	0x3f8a0000	1.078125
85	0x3f520000	0.8203125
86	0x3f890000	1.0703125
87	0xbab30000	-0.0013656616
88	0x3de80000	0.11328125
89	0x3c650000	0.013977051
90	0xbca20000	-0.01977539
91	0x3f0f0000	0.55859375
92	0x3f990000	1.1953125
93	0x3eb90000	0.36132812
94	0x3f9f0000	1.2421875
95	0x3f650000	0.89453125
96	0x3f3c0000	0.734375
97	0x3f7f0000	0.99609375
98	0x3f3f0000	0.74609375
99	0x3ec90000	0.39257812
100	0x3fa10000	1.2578125
101	0x3f2d0000	0.67578125
102	0x3f660000	0.8984375
103	0x3f810000	1.0078125
104	0xbb940000	-0.0045166016
105	0x3f780000	0.96875
106	0x3f8f0000	1.1171875
107	0x3f820000	1.015625
108	0x3f8d0000	1.1015625
109	0x3f8c0000	1.09375
110	0x3e310000	0.17285156
111	0x3ca90000	0.020629883
112	0x3f100000	0.5625
113	0x3f6c0000	0.921875
114	0x3f830000	1.0234375
115	0x3f6c0000	0.921875
116	0x3f2c0000	0.671875
117	0x3f910000	1.1328125
118	0x3f990000	1.1953125
119	0x3f810000	1.0078125
120	0x3f550000	0.83203125
121	0x3f870000	1.0546875
122	0x3f5c0000	0.859375
123	0x3f510000	0.81640625
124	0x3f270000	0.65234375
125	0x3f590000	0.84765625
126	0x3f190000	0.59765625
127	0x3eeb0000	0.45898438
128	0x3f510000	0.81640625
129	0x3ec70000	0.38867188
130	0x3f4f0000	0.80859375
131	0x3f770000	0.96484375
132	0x3f2d0000	0.67578125
133	0x3f990000	1.1953125
134	0x3f8c0000	1.09375
135	0x3f110000	0.56640625
136	0x3f7f0000	0.99609375
137	0x3f420000	0.7578125
138	0x3e9e0000	0.30859375
139	0x3f260000	0.6484375
140	0x3f700000	0.9375
141	0x3c320000	0.010864258
142	0x3f0f0000	0.55859375
143	0x3f610000	0.87890625
144	0x3f4f0000	0.80859375
145	0x3f190000	0.59765625
146	0x3f870000	1.0546875
147	0x3f760000	0.9609375
148	0x3f140000	0.578125
149	0x3f920000	1.140625
150	0x3cb80000	0.022460938
151	0x3f3d0000	0.73828125
152	0x3f720000	0.9453125
153	0x3f440000	0.765625
154	0x3d8c0000	0.068359375
155	0x3f880000	1.0625
156	0x3f8b0000	1.0859375
157	0x3f7d0000	0.98828125
158	0x3fcc0000	1.59375
159	0x3d070000	0.032958984
160	0x3ec60000	0.38671875
161	0x3d470000	0.048583984
162	0x3f980000	1.1875
163	0x3f600000	0.875
164	0x3e640000	0.22265625
165	0x3f410000	0.75390625
166	0x3f750000	0.95703125
167	0x3f8e0000	1.109375
168	0x3f5f0000	0.87109375
169	0x3f460000	0.7734375
170	0x3f880000	1.0625
171	0x3ebc0000	0.3671875
172	0x3f4d0000	0.80078125
173	0x3f8d0000	1.1015625
174	0x3f570000	0.83984375
175	0x3fad0000	1.3515625
176	0x3f1f0000	0.62109375
177	0x3f210000	0.62890625
178	0x3f970000	1.1796875
179	0x3f630000	0.88671875
180	0x3f610000	0.87890625
181	0x3fa30000	1.2734375
182	0x3d230000	0.039794922
183	0x3fa40000	1.28125
184	0x3f6b0000	0.91796875
185	0x3f510000	0.81640625
186	0x3f5a0000	0.8515625
187	0x3f770000	0.96484375
188	0x3f900000	1.125
189	0x3f880000	1.0625
190	0x3f840000	1.03125
191	0x3f5c0000	0.859375
192	0x3f470000	0.77734375
193	0x3f830000	1.0234375
194	0x3f470000	0.77734375
195	0x3f730000	0.94921875
196	0x3d380000	0.044921875
197	0x3bc40000	0.0059814453
198	0x3f290000	0.66015625
199	0x3fa80000	1.3125
200	0x3f920000	1.140625
201	0x3f8a0000	1.078125
202	0x3f580000	0.84375
203	0x3f860000	1.046875
204	0x3fb80000	1.4375
205	0x3f2d0000	0.67578125
206	0x3e8e0000	0.27734375
207	0x3f670000	0.90234375
208	0x3f210000	0.62890625
209	0x3f380000	0.71875
210	0x3f590000	0.84765625
211	0x3f780000	0.96875
212	0x3f9a0000	1.203125
213	0x3ceb0000	0.028686523
214	0x3f5b0000	0.85546875
215	0x3f840000	1.03125
216	0x3f390000	0.72265625
217	0x3f9f0000	1.2421875
218	0x3f030000	0.51171875
219	0x3f5e0000	0.8671875
220	0x3f3d0000	0.73828125
221	0x3fbb0000	1.4609375
222	0x3f650000	0.89453125
223	0x3f9a0000	1.203125
224	0x3f460000	0.7734375
225	0x3f1c0000	0.609375
226	0x3f950000	1.1640625
227	0x3f9e0000	1.234375
228	0x3f580000	0.84375
229	0x3f4b0000	0.79296875
230	0x3f330000	0.69921875
231	0x3f440000	0.765625
232	0x3f670000	0.90234375
233	0x3f820000	1.015625
234	0x3f820000	1.015625
235	0x3f500000	0.8125
236	0x3ecd0000	0.40039062
237	0x3f660000	0.8984375
238	0x3f830000	1.0234375
239	0x3f300000	0.6875
240	0x3f8d0000	1.1015625
241	0x3f7b0000	0.98046875
242	0x3fa40000	1.28125
243	0x3f700000	0.9375
244	0x3d840000	0.064453125
245	0x3f2d0000	0.67578125
246	0x3f5f0000	0.87109375
247	0x3e8e0000	0.27734375
248	0x3c720000	0.014770508
249	0x3f5b0000	0.85546875
250	0x3f750000	0.95703125
251	0x3f6d0000	0.92578125
252	0x3ed30000	0.41210938
253	0x3f860000	1.046875
254	0xbc420000	-0.01184082
255	0x3ed60000	0.41796875
